models/simple_nn_model.pth (torch, 21144 bytes, 6 tensors)

fc1.weight f4 [64, 54]
0	0xbdca78f0	-0.09886348
1	0x3c8ae215	0.016953507
2	0x3c2f246f	0.010689839
3	0x3d8f364a	0.06992777
4	0x3e46f31e	0.1942868
5	0xbdb0b12c	-0.08627543
6	0xbd3fe556	-0.04684957
7	0x3cba8e5c	0.02277296
8	0xbe10bd69	-0.14134754
9	0x3d8c09a4	0.06837776
10	0xbe0aa6d4	-0.13540202
11	0x3c8bb00e	0.017051723
12	0xbe7d6aef	-0.24747823
13	0xbddb7cff	-0.107172005
14	0x3daf9d45	0.08574919
15	0x3d193f00	0.037413597
16	0xbdf2534b	-0.11832293
17	0x3de37962	0.11107136
18	0xbcf1d8e2	-0.029522363
19	0x3da96d6e	0.08272825
20	0x3d8f1110	0.06985676
21	0xbe16bdc1	-0.14720823
22	0xbdaa1085	-0.08303932
23	0xbdec8839	-0.1154942
24	0xbe07b6b7	-0.13253294
25	0x3d70c84d	0.05878477
26	0xbe2a411f	-0.16626404
27	0x3d211b41	0.039332632
28	0x3dbcef0d	0.09225283
29	0x3d19b918	0.037530035
30	0x3e8dfb64	0.27730858
31	0xbe47de51	-0.195184
32	0xbe0c2cf2	-0.1368902
33	0x3de29551	0.11063636
34	0x3cd01f78	0.02540563
35	0xbdebc65b	-0.11512443
36	0xbdd2f028	-0.102997124
37	0xbbc5c420	-0.006035343
38	0x3e3db332	0.18525389
39	0x3dc059e5	0.09392146
40	0x3d84fc5f	0.064934485
41	0xbe51809c	-0.20459217
42	0xbd762bd3	-0.060100388
43	0x3c92b988	0.017910734
44	0x3dbb202c	0.09136996
45	0x3d83afc6	0.064300105
46	0xbd7ee825	-0.06223311
47	0xbe68c5e9	-0.22731747
48	0xbdd6dd3d	-0.104914166
49	0x3e1d6b61	0.15372993
50	0xbd88e139	-0.06683583
51	0xbe5bda84	-0.21470076
52	0xbd8f644a	-0.070015505
53	0xbe5d92e0	-0.2163806
54	0xbe03bb86	-0.12864503
55	0x3db9740c	0.09055337
56	0xbdea772f	-0.11448514
57	0xbe3c8368	-0.18409503
58	0x3d908639	0.07056851
59	0xbe144df6	-0.14482865
60	0xbdb6719a	-0.089083865
61	0xbe40545c	-0.1878218
62	0xbe0fa83c	-0.1402902
63	0x3e462744	0.19350916
64	0xbe11c25a	-0.14234295
65	0x3da8f21b	0.08249303
66	0x3d4c8353	0.049929928
67	0xbe13978d	-0.14413281
68	0xbe3c077b	-0.18362229
69	0xbd19b664	-0.037527457
70	0xbe1db173	-0.15399723
71	0xbde5c4ea	-0.11219199
72	0xbe325434	-0.17414933
73	0xbe045d1e	-0.12926146
74	0xbe087497	-0.13325725
75	0xbb2b50f1	-0.0026140774
76	0x3d8e9c9c	0.069634646
77	0x3e5efbe0	0.2177577
78	0xbda70ccb	-0.08156737
79	0x3dab0280	0.08350086
80	0xbdf60e04	-0.12014392
81	0x3d8033f6	0.06259911
82	0xbe20ac1b	-0.15690653
83	0xbe14f12c	-0.14545125
84	0x3e2a333d	0.16621108
85	0xbde1ec0e	-0.11031352
86	0x3e6dfbc9	0.2324058
87	0x3d1cc18d	0.038270522
88	0xbde5e9c8	-0.11226231
89	0xbe29116e	-0.16510555
90	0xbe6c096e	-0.23050472
91	0xbd905a11	-0.07048429
92	0xbd0589e4	-0.032602206
93	0xbdeef207	-0.11667257
94	0xbbbec026	-0.0058212457
95	0xbdf3871d	-0.11891005
96	0x3da777e0	0.08177161
97	0x3da5c584	0.08094314
98	0x3b3d748a	0.0028908574
99	0xbe0130f0	-0.12616324
100	0x3d7769e2	0.060403712
101	0x3dcd3ff9	0.100219674
102	0xbdfd6e41	-0.12374545
103	0xbe65c1d8	-0.22437227
104	0x3e2c4c24	0.1682592
105	0xbe0635ac	-0.13106412
106	0xbc4b82b4	-0.012421299
107	0x3d58db23	0.05294336
108	0xbd310f6d	-0.0432276
109	0xbe7bfdc0	-0.24608517
110	0xbe24c835	-0.16091998
111	0xbdc647d4	-0.09681669
112	0x3d84603e	0.06463669
113	0xbd525c17	-0.051357355
114	0x3e1c95c7	0.1529151
115	0x3d0dddc2	0.034635313
116	0xbd059a44	-0.032617822
117	0xbd062fc9	-0.032760415
118	0xbe4d4afd	-0.20048137
119	0xbdcc123f	-0.09964418
120	0xbde719f5	-0.11284248
121	0xbccb7f9b	-0.02484112
122	0xbd9cc9b2	-0.07655658
123	0x3ce57ac0	0.028012633
124	0xbd8946f8	-0.06702989
125	0xbe0cc519	-0.13747062
126	0x3d77c8b7	0.06049415
127	0xbe30fcea	-0.17283979
128	0x3de91438	0.113808095
129	0xbe35f133	-0.17767791
130	0xbe1c5d5d	-0.1526999
131	0xbc33a48e	-0.010964526
132	0xbe67665c	-0.22597641
133	0xbe360a55	-0.17777379
134	0xbe55e680	-0.2088871
135	0x3d273c16	0.040828787
136	0xbdb47e0f	-0.08813106
137	0xbe3893e7	-0.1802517
138	0x3e5170ee	0.20453236
139	0x3cf01dc4	0.029311068
140	0xbdd77006	-0.10519414
141	0x3c90ca61	0.017674627
142	0x3cddb970	0.027065963
143	0xbe478974	-0.19486028
144	0xbdaa76c8	-0.08323437
145	0x3c5803e0	0.013184518
146	0xbd319bed	-0.043361593
147	0xbdcf8575	-0.10132877
148	0x3d41cb5c	0.04731308
149	0xbe4823ed	-0.19544955
150	0xbd661f89	-0.056182418
151	0x3cf2b8d0	0.029629141
152	0xbe712dc0	-0.23552608
153	0xbe5d05cb	-0.21584241
154	0x3dc40f86	0.09573273
155	0xbe39137b	-0.18073837
156	0xbe65eeb9	-0.22454347
157	0xbe0ec932	-0.13943937
158	0x3e36fdc2	0.17870238
159	0xbd73d53b	-0.059529524
160	0x3b62c34a	0.0034601265
161	0xbdbe0d24	-0.0927985
162	0xbd8cf92b	-0.068834625
163	0xbc778bce	-0.015109016
164	0xbd38fcbc	-0.0451629
165	0xbe5da642	-0.21645454
166	0x3d7c19a7	0.0615479
167	0x3de405d6	0.111339256
168	0xbd583e30	-0.05279368
169	0x3d63603b	0.055511694
170	0xbdc54c28	-0.09633666
171	0x3d856465	0.06513289
172	0xbd7ee7af	-0.06223267
173	0xbe45234a	-0.19251743
174	0x3df8282a	0.12117036
175	0xbe4cf419	-0.20014991
176	0xbdda1b88	-0.106497824
177	0x3dfec274	0.12439433
178	0xbe5b0462	-0.2138839
179	0xbb370544	-0.0027926723
180	0xbe256bba	-0.16154376
181	0xbd12a6e0	-0.035803676
182	0x3d5c7fd8	0.05383286
183	0x3d5e39e8	0.054254442
184	0x3e1e5ab2	0.15464285
185	0x3dcb95c9	0.099406786
186	0xbe42b8de	-0.19015834
187	0x3d9184b0	0.07105386
188	0x3e266138	0.16248024
189	0xbe31b1b4	-0.17352945
190	0xbd8483ee	-0.06470476
191	0xbd925205	-0.0714455
192	0x3ce1afea	0.027549703
193	0xbdf9053f	-0.12159204
194	0xbdcd0de0	-0.10012412
195	0x3c495100	0.012287378
196	0x3d5d2b28	0.053996235
197	0xbe6a4a3d	-0.22879882
198	0x3e6c9b65	0.23106153
199	0xbe023eeb	-0.12719314
200	0x3dd3239b	0.103095256
201	0xbe48c121	-0.19604923
202	0x3db1b4ed	0.08677087
203	0xbdc35093	-0.09536853
204	0xbe7f0896	-0.24905619
205	0xbc4be408	-0.012444504
206	0x3cd2d16d	0.025734628
207	0xbe65eb01	-0.22452928
208	0xbd5011a7	-0.050798085
209	0x3dd0db31	0.101980574
210	0x3e05031d	0.12989469
211	0xbe410f0f	-0.188534
212	0xbe6d4185	-0.23169525
213	0xbe04b414	-0.1295932
214	0x3d927f97	0.07153242
215	0x3e21cebf	0.15801524
216	0xbe11929c	-0.14216083
217	0xbd8d1556	-0.06888835
218	0x3e15adfb	0.1461715
219	0x3e459fdf	0.19299267
220	0x3e358f05	0.17730339
221	0x3ba660b4	0.005077446
222	0xbd760712	-0.060065337
223	0x3cd47225	0.025933335
224	0xbdf81f63	-0.121153615
225	0x3dff975f	0.124800436
226	0xbdd3dec9	-0.10345227
227	0x3e6b9d3c	0.23009199
228	0x3e1d07a2	0.15334943
229	0xbe1b954f	-0.15193675
230	0xbd68e2d6	-0.056856953
231	0x3dc72cdc	0.09725353
232	0x3d06b81a	0.032890417
233	0xbdc51497	-0.09623068
234	0x3d465c45	0.04842784
235	0x3c11c590	0.0088972
236	0x3b741e80	0.0037249625
237	0x3cacfd05	0.021116743
238	0x3dca9f22	0.098936334
239	0xbe2002ca	-0.15626064
240	0x3e352b5a	0.17692319
241	0x3bef0e13	0.007295379
242	0x3e180aef	0.14847921
243	0xbd1918b7	-0.037377086
244	0xbdab3a61	-0.08360744
245	0x3e055f37	0.13024603
246	0xbe44627b	-0.19178192
247	0x3c0566ec	0.008142214
248	0x3d770498	0.060307115
249	0xbe6ce200	-0.23133087
250	0xbce8e11c	-0.028427653
251	0xbd97c726	-0.074110314
252	0xbdd20d29	-0.10256416
253	0x3d520a3c	0.05127929
254	0xbd3068d1	-0.04306871
255	0x3db5c9db	0.088763915

fc1.bias f4 [64]
0	0x3e0451a2	0.12921765
1	0x3cd5beb2	0.026091907
2	0x3dec9fb3	0.11553898
3	0xbbb809f7	-0.0056164223
4	0xbd9da759	-0.07697935
5	0x3e2e5b5e	0.17027041
6	0x3e919e21	0.28440955
7	0x3e5f450b	0.21803682
8	0x3e4a1865	0.19735868
9	0x3e20fba8	0.15720999
10	0x3da75cbb	0.08171984
11	0x3e23f18a	0.16010109
12	0x3d0cebb4	0.03440447
13	0x3e3f40d7	0.18677078
14	0x3d918582	0.07105543
15	0x3c84dfaa	0.016219933
16	0x3e14d49e	0.14534232
17	0x3e8901e9	0.2675927
18	0x3e27103e	0.1631479
19	0x3e364cfa	0.17802802
20	0x3e37e69f	0.17959069
21	0x3db67c6e	0.08910452
22	0x3d3d0b3f	0.046153303
23	0x3d8bd8e0	0.06828475
24	0x3e36a775	0.17837317
25	0x3c920b8e	0.017827775
26	0x3e4e9597	0.20174251
27	0x3d10d9e6	0.035364054
28	0x3db45a6c	0.08806309
29	0xbd468d74	-0.048474744
30	0x3dc862f5	0.097844996
31	0x3de3a9f3	0.111163996
32	0x3e45bd19	0.19310416
33	0x3e47fb1b	0.19529383
34	0x3e32b534	0.17451936
35	0x3e5eb159	0.2174734
36	0x3de2922b	0.110630356
37	0x3e8ab1fa	0.2708891
38	0x3dd4cce0	0.10390639
39	0x3e335225	0.17511804
40	0x3e0b5dc2	0.13609985
41	0x3dc845d2	0.09778942
42	0x3df6a443	0.12043049
43	0xbe09088a	-0.13382164
44	0x3e4582a7	0.19288121
45	0x3db71fe9	0.08941633
46	0x3dc942fe	0.09827231
47	0x3e18c093	0.14917211
48	0x3cc14c3a	0.023595918
49	0xbc88f4d4	-0.016718306
50	0x3e73eb9d	0.23820348
51	0x3c715a58	0.014731012
52	0x3e04d9e1	0.12973739
53	0x3e6a84ad	0.22902174
54	0x3dbbe0d0	0.09173739
55	0x3dcaf557	0.09910076
56	0x3e73b745	0.2380038
57	0x3e5f30af	0.21795915
58	0x3e867678	0.2626226
59	0x3e6fb089	0.23407187
60	0x3e29438f	0.16529678
61	0x3e1bb5e2	0.15206102
62	0x3df3d7e3	0.119064115
63	0x3dfa0753	0.12208428

fc2.weight f4 [16, 64]
0	0x3e3d6bcb	0.18498151
1	0x3cc30d2e	0.023809996
2	0x3e076778	0.13223064
3	0x3e44ff1b	0.1923794
4	0x3caa3b29	0.020780163
5	0x3cce9cd1	0.02522126
6	0x3dd62e21	0.10458017
7	0x3e99ee2f	0.30064532
8	0x3e5f2926	0.2179304
9	0x3ddaf066	0.106903836
10	0x3df2122e	0.11819874
11	0x3e32dd87	0.17467318
12	0x3e95946d	0.29214802
13	0x3e4ff74d	0.20309182
14	0x3db9340f	0.090431325
15	0x3e7ddf0a	0.24792114
16	0x3e949c45	0.29025474
17	0x3e760885	0.24026687
18	0x3e6ac418	0.22926366
19	0xbd12b212	-0.035814352
20	0xbd0a10b3	-0.033707332
21	0xbc80f32e	-0.015740957
22	0x3e678074	0.22607595
23	0x3e2ddf7b	0.16979782
24	0x3d60fb9b	0.05492745
25	0x3e8770e5	0.2645332
26	0x3e874013	0.26416072
27	0x3dd38c89	0.10329539
28	0x3d6ac3e9	0.05731574
29	0xbce562eb	-0.02800127
30	0x3dd9f1f4	0.10641852
31	0x3e8cf795	0.2753264
32	0x3d4187a2	0.04724849
33	0x3da737f2	0.081649676
34	0x3e6eb431	0.23310925
35	0x3db0c87e	0.08631991
36	0x3e7748d0	0.2414887
37	0xbd153d04	-0.036435142
38	0x3e6d19c6	0.23154363
39	0x3de667ae	0.11250244
40	0xbd882e69	-0.06649477
41	0xbe4c4810	-0.19949365
42	0x3e670426	0.22560176
43	0x3da798dd	0.08183453
44	0x3e2c6d53	0.16838579
45	0x3d9ea119	0.07745571
46	0xbd9ab56f	-0.07554137
47	0x3e5972d1	0.21235205
48	0x3d997b16	0.0749418
49	0xbdff0cb5	-0.124535955
50	0x3d74ee41	0.05979753
51	0x3e9d8db5	0.30772176
52	0x3e01c82b	0.12674014
53	0xbdb1cdba	-0.08681817
54	0x3e2a25db	0.16616003
55	0x3d5523d9	0.05203614
56	0x3e0e24eb	0.1388127
57	0x3e89c56e	0.2690844
58	0x3dce2427	0.10065489
59	0xbd9be5ab	-0.07612165
60	0x3e891d0b	0.2677997
61	0x3e4ca745	0.19985683
62	0x3e1b92f8	0.15192783
63	0x3da3c429	0.07996399
64	0x3e21372a	0.157437
65	0xbe72fe16	-0.23729739
66	0x3dc4cdd1	0.09609569
67	0x3dcaa2ad	0.09894309
68	0x3cc9c5fa	0.024630535
69	0xbd97f3c2	-0.0741954
70	0xbd43ef2c	-0.047835514
71	0x3db8607b	0.09002777
72	0xbcc9d2d3	-0.024636662
73	0xbdfd995e	-0.12382768
74	0x3dbeee4a	0.09322794
75	0x3df03034	0.11727944
76	0x3d556877	0.05210158
77	0x3e1f5ef2	0.15563563
78	0x3d692cc4	0.056927457
79	0x3d95a18f	0.073062055
80	0x3c8e64cb	0.017382046
81	0x3c2ea5fa	0.010659689
82	0x3d8ad711	0.06779302
83	0xbd443fe1	-0.047912482
84	0x3b60129d	0.0034190782
85	0xbc45a881	-0.0120641
86	0x3c52188c	0.012823235
87	0x3e0ad650	0.13558316
88	0xbd50087e	-0.05078935
89	0x3c1238a3	0.008924636
90	0xbdc13e52	-0.09435715
91	0x3d3b2c92	0.045696802
92	0x3e474fac	0.19463986
93	0x3e186afe	0.14884564
94	0x3d87c920	0.066301584
95	0x3de36e3e	0.111050114
96	0x3e2f1134	0.17096406
97	0x3e0af184	0.13568693
98	0x3df23bc3	0.11827805
99	0x3e5f5d2e	0.21812889
100	0x3df0ec28	0.11763793
101	0x3e1ebb89	0.15501226
102	0x3e4316c1	0.19051649
103	0x3dfc21e1	0.123111494
104	0x3d82eaeb	0.06392463
105	0x3c99a4da	0.018755365
106	0x3dd81c71	0.105523
107	0xbdd5aa09	-0.10432822
108	0x3e38c337	0.18043219
109	0xbdd00e8e	-0.10159026
110	0x3c86268f	0.016375808
111	0x3e3d1c15	0.18467744
112	0x3dcec9de	0.10097097
113	0x3ddbe0bf	0.10736226
114	0x3e83fc9e	0.2577867
115	0xbd890eff	-0.066923134
116	0xbcdf7897	-0.027279181
117	0xbd435692	-0.04768998
118	0x3cb30f30	0.021857828
119	0x3e84708b	0.25867113
120	0x3d8f411a	0.06994839
121	0x3e859710	0.26091814
122	0x3e6d1681	0.23153116
123	0x3e0863ee	0.1331937
124	0xbda79d46	-0.081842944
125	0x3e3d487f	0.18484686
126	0x3db968eb	0.09053215
127	0x3e85610d	0.26050606
128	0x3df51702	0.11967279
129	0x3db88c5b	0.09011146
130	0x3d710908	0.058846503
131	0x3d26b5d0	0.040700734
132	0xbd6448bc	-0.055733427
133	0x3e37d1e9	0.17951168
134	0x3dea1750	0.11430228
135	0x3dcfacd1	0.10140384
136	0x3e721f7f	0.23644827
137	0x3e391d6f	0.18077634
138	0xbe3cb116	-0.18426928
139	0x3dd43ecf	0.10363542
140	0x3e3911a1	0.18073131
141	0x3e4ff51b	0.20308344
142	0x3d97141e	0.07376884
143	0xbe645324	-0.2229734
144	0xbe053a30	-0.13010478
145	0x3dbe56aa	0.092938736
146	0xbc6ce0ca	-0.014457891
147	0x3d507fd1	0.050903145
148	0x3e6c033d	0.2304811
149	0x3d461d39	0.048367713
150	0xbd14eb68	-0.036357313
151	0x3e556200	0.20838165
152	0xbdce6cb4	-0.10079327
153	0x3da9506a	0.08267291
154	0x3d8c60dc	0.06854412
155	0xbdf72864	-0.12068251
156	0x3d265ac0	0.04061389
157	0x3dc5164e	0.09623395
158	0xbcf2dde2	-0.029646818
159	0xbc97fd48	-0.018553391
160	0x3c7ecc3e	0.015551625
161	0x3e4f70ca	0.2025787
162	0x3cd0dc55	0.025495687
163	0xbb0878c3	-0.0020823933
164	0x3e20a5f9	0.15688314
165	0x3d804bf1	0.06264485
166	0x3e196183	0.14978604
167	0x3de87069	0.113495655
168	0xbe2314e2	-0.15925935
169	0xbdcc74e9	-0.09983236
170	0xbc31ce33	-0.010852384
171	0xbdeb03ff	-0.114753716
172	0xbe00afde	-0.12567088
173	0x3e008d9a	0.12554017
174	0x3e5206d1	0.20510413
175	0x3cac7543	0.021052008
176	0x3da0f601	0.078594215
177	0x3d0730c1	0.03300548
178	0x3de9df62	0.1141956
179	0x3e6ac046	0.22924909
180	0xbcead68d	-0.028666759
181	0x3e728d61	0.23686744
182	0x3e5cc743	0.21560387
183	0x3c6fe945	0.014643018
184	0x3db4470c	0.088026136
185	0x3df4952b	0.11942514
186	0x3e12374c	0.14278907
187	0x3dfdbef3	0.12389936
188	0x3e32d6a6	0.17464694
189	0x3a226da6	0.00061961485
190	0x3e1775b3	0.14790992
191	0xbe3c5253	-0.18390779
192	0x3e03fadd	0.12888665
193	0xbe522a7a	-0.20524016
194	0x3e01f9a2	0.12692884
195	0x3d225aeb	0.039637487
196	0x3dcc3eea	0.099729374
197	0xbd73e8a6	-0.059548043
198	0x3d8be991	0.06831659
199	0x3e12005a	0.14257947
200	0x3e3c352a	0.18379655
201	0xbdc7b5ff	-0.0975151
202	0x3c295e11	0.010337369
203	0x3e6fce31	0.234185
204	0x3e015f98	0.12634122
205	0x3e73adc7	0.2379676
206	0x3df39a7b	0.11894699
207	0x3df7d159	0.12100477
208	0x3c9eb375	0.019372681
209	0x3e1f7eff	0.15575789
210	0x3e1bb436	0.15205464
211	0xbe0a2aa2	-0.13492826
212	0x3e7f5b77	0.24937235
213	0xbd4ec9d9	-0.050485466
214	0x3e283a26	0.16428432
215	0x3e3ae79b	0.18252413
216	0xbcb1c543	-0.021700507
217	0x3cdb5441	0.026773574
218	0x3dd5bf41	0.104368694
219	0x3cdf04f2	0.027224038
220	0x3d668df0	0.056287706
221	0x3dc43431	0.09580267
222	0x3dcf2424	0.10114315
223	0xbd592059	-0.053009365
224	0xbd00fdc4	-0.03149201
225	0x3d71428a	0.058901347
226	0x3dac5f48	0.08416611
227	0x3e7afb13	0.2450984
228	0x3d834807	0.064102225
229	0x3d8f615c	0.07000992
230	0x3bff625d	0.0077937082
231	0x3ca64623	0.020297116
232	0x3d17a5bc	0.03702329
233	0xbe25b3bf	-0.16181849
234	0x3e2c945d	0.16853471
235	0xbdc31e3d	-0.09527252
236	0x3e32cf3e	0.17461869
237	0x3dc65eea	0.09686072
238	0x3de01c36	0.10942881
239	0x3d4a6bfe	0.049419396
240	0x3dfb0e7e	0.122586235
241	0xbce193a3	-0.027536219
242	0x3c444a31	0.011980579
243	0xbd4b2b90	-0.04960209
244	0xbc80a7c5	-0.015704999
245	0xbca0ee3c	-0.019644849
246	0xbd08cc56	-0.033397995
247	0x3d97baa5	0.074086465
248	0x3da21be2	0.079154745
249	0x3ddc5052	0.107575074
250	0x3e7fb670	0.24971938
251	0x3e31d74d	0.17367287
252	0x3dee5992	0.11638178
253	0x3d0549b8	0.032541007
254	0x3d728eb2	0.059218116
255	0x3e81fa9c	0.25386512

fc2.bias f4 [16]
0	0x3cab3f16	0.020904105
1	0x3d687afe	0.05675792
2	0x3dc393ea	0.09549697
3	0x3d73d95f	0.059533473
4	0x3dd8faef	0.10594737
5	0x3e3f42e6	0.18677863
6	0x3d533509	0.05156425
7	0x3e701565	0.23445661
8	0x3e3e45d5	0.18581326
9	0xbaa9a1c0	-0.0012941882
10	0xbd7b8354	-0.06140454
11	0x3e5a3b33	0.21311645
12	0x3cc49ace	0.023999598
13	0x3d92064e	0.07130109
14	0x3e5205aa	0.20509973
15	0x3b21c15e	0.0024681906

fc3.weight f4 [4, 16]
0	0x39dce395	0.00042131232
1	0xbe750364	-0.23927075
2	0x3d835941	0.06413508
3	0xbe8383eb	-0.25686583
4	0xbe36760e	-0.17818472
5	0xbeb7f312	-0.35927635
6	0xbdf3c7da	-0.11903353
7	0xbd3131f0	-0.043260515
8	0xbe29d401	-0.1658478
9	0xbe4af812	-0.19821194
10	0x3e72b3a2	0.23701337
11	0x3e4b1158	0.19830835
12	0x3e2e48ff	0.17020033
13	0x3e58819d	0.21143194
14	0xbec61b7c	-0.38692844
15	0xbe83d448	-0.25747895
16	0xbe81f6f3	-0.2538372
17	0xbc0c6a17	-0.008570216
18	0xbdd61f45	-0.10455183
19	0xbdd70bc8	-0.10500294
20	0xbc3214cf	-0.010869219
21	0xbed35110	-0.41272783
22	0xbeba4b61	-0.36385635
23	0x3e565cff	0.20933913
24	0x3eb8638e	0.36013454
25	0xbee592a8	-0.44838452
26	0x3ceb8501	0.028749945
27	0x3e0b3af0	0.13596702
28	0xbe85b169	-0.26111916
29	0x3dc0f946	0.09422545
30	0x3e72caff	0.2371025
31	0xbe9868f1	-0.29767564
32	0xbd112fca	-0.035445966
33	0xbe2602d3	-0.16212015
34	0xbebd3f84	-0.3696252
35	0xbe98b396	-0.29824513
36	0xbe18d863	-0.14926295
37	0x3de5af45	0.11215071
38	0xbea64b44	-0.32479298
39	0x3e91e25c	0.2849301
40	0xbe9c8374	-0.3056904
41	0x3e1c3c93	0.15257482
42	0x3dd637ef	0.10459887
43	0xbebd5425	-0.3697826
44	0xbde3655e	-0.11103319
45	0x3e4e4e89	0.20147146
46	0xbe1f69d2	-0.15567711
47	0xbd841740	-0.06449747
48	0xbe86a9c9	-0.2630141
49	0xbe51e688	-0.20498097
50	0x3e2c3ec5	0.1682082
51	0xbe9e2d79	-0.30894068
52	0x3e7d0b4b	0.24711339
53	0x3e8ff93e	0.28119844
54	0xbebfe73b	-0.37481102
55	0xbe452339	-0.19251718
56	0x3e977aef	0.29585978
57	0xbe1d730e	-0.15375921
58	0xbec1c97f	-0.37849042
59	0x3e943465	0.28946224
60	0x3e938138	0.28809524
61	0xbebcad3f	-0.36850926
62	0x3e46984a	0.19394031
63	0xbe703956	-0.23459372

fc3.bias f4 [4]
0	0xbcd56e68	-0.026053622
1	0xbe8214aa	-0.2540639
2	0xbe1e2d1e	-0.15446898
3	0x3e8675e0	0.26261806
