models/simple_nn_model.pth (torch, 21144 bytes, 6 tensors)

fc1.weight f4 [64, 54]
0	0xbe36051b	-0.17775385
1	0xbd37b6a6	-0.04485192
2	0x3cfd82a9	0.030946093
3	0xbdfcc532	-0.123422995
4	0xbe0d7cf0	-0.13817191
5	0xbe1167b7	-0.1419972
6	0x3d2a8416	0.041629873
7	0xbe24a1f2	-0.16077402
8	0xbd92c619	-0.071666904
9	0xbe116429	-0.14198364
10	0xbe05a24a	-0.1305019
11	0x3a5fb01a	0.0008533016
12	0xbe326f89	-0.1742536
13	0xbd9be0dd	-0.07611249
14	0x3d390b6c	0.04517691
15	0x3a8f3a00	0.001092732
16	0xbe0eede4	-0.13957936
17	0xbe1d4952	-0.1536
18	0x3e432bd7	0.19059692
19	0xbcfb6e13	-0.030692136
20	0x3cabb470	0.020960063
21	0x3d890652	0.06690659
22	0x3e232e18	0.15935552
23	0x3d29f4a8	0.041493088
24	0x3cddc8a1	0.027073206
25	0xbe4786d0	-0.1948502
26	0xbe426949	-0.18985476
27	0xbe33db6c	-0.17564172
28	0xbe63baa4	-0.22239166
29	0xbd523904	-0.051323906
30	0xbd327c20	-0.043575406
31	0xbba50afe	-0.0050367108
32	0x3d96a9e6	0.07356624
33	0xbd6d8ba5	-0.057994504
34	0xbc92335c	-0.017846756
35	0xbcf78a27	-0.030217243
36	0xbe092ae4	-0.13395268
37	0xbd9cefba	-0.07662912
38	0xbdc2981f	-0.09501671
39	0xbde5474c	-0.111952394
40	0xbdaf5d01	-0.08562661
41	0xbe3b3c56	-0.18284735
42	0x3e07d85c	0.13266128
43	0x3bda2f00	0.006658435
44	0xbd0bedab	-0.034162205
45	0xbdf75f8b	-0.1207877
46	0x3e51d887	0.20492755
47	0xbe178390	-0.14796281
48	0xbe5408c5	-0.2070647
49	0xbe2ec202	-0.17066196
50	0xbca87aad	-0.020566309
51	0x3dfda92f	0.12385785
52	0x3e130cec	0.14360398
53	0x3ccac975	0.024754265
54	0x3dd43ed0	0.10363543
55	0xbcd76f3d	-0.02629816
56	0x3d7ce2a8	0.061739594
57	0xbe046913	-0.12930708
58	0xbcbe6029	-0.023239212
59	0x3d90eed0	0.070768
60	0x3e4d91f1	0.20075203
61	0x3d925d24	0.071466714
62	0x3dd25dae	0.10271774
63	0x3e0e5e35	0.13903125
64	0xbe3ece6d	-0.18633433
65	0xbd5a1ad3	-0.053248238
66	0xbe5e10e1	-0.21686126
67	0x3e341518	0.17586172
68	0xbe0fbc36	-0.1403664
69	0x3d946422	0.07245661
70	0x3e1835eb	0.14864318
71	0xbc3fb342	-0.011700453
72	0xbda0f1c3	-0.078586124
73	0xbe42e49d	-0.19032522
74	0xbcf0a908	-0.029377475
75	0x3d325ed1	0.043547455
76	0xbd093bfd	-0.033504475
77	0xbe4f7257	-0.20258461
78	0xbda27ad2	-0.07933582
79	0x3cfff216	0.031243365
80	0xbd5c13a8	-0.053729683
81	0x3d7aaac0	0.061197996
82	0x3d5b4b9b	0.0535389
83	0x3db306ca	0.08741529
84	0xbe028eab	-0.12749736
85	0x3dc2f582	0.09519483
86	0x3db2f282	0.08737661
87	0x3dd4f4be	0.10398243
88	0x3dc02e0c	0.09383783
89	0xbb152028	-0.0022754762
90	0xbd7c8c13	-0.061657023
91	0xbd4e011c	-0.050294027
92	0x3e1e55d4	0.15462428
93	0x3d7d99b6	0.06191417
94	0xbe20c44f	-0.15699886
95	0xbe17a3df	-0.14808606
96	0xbdb95a8c	-0.090504736
97	0xbddea10a	-0.108705595
98	0x3d9b4237	0.07580989
99	0xbe015a84	-0.12632185
100	0xbdfa956e	-0.12235533
101	0xbe0b6cac	-0.13615674
102	0x3dadbc26	0.08483152
103	0xbdc4ebeb	-0.0961531
104	0x3e0d40ce	0.13794252
105	0x3d583510	0.05278498
106	0x3e125876	0.14291558
107	0xbc9062a6	-0.017625164
108	0x3c53e140	0.012932122
109	0xbd84621e	-0.06464027
110	0xbe296ca6	-0.16545352
111	0xbd8b3358	-0.067969024
112	0xbd859daf	-0.065242164
113	0xbb55da26	-0.0032631247
114	0xbdb790e9	-0.08963186
115	0x3d305479	0.04304931
116	0x3cc3808e	0.02386501
117	0xbe40bf6d	-0.18823023
118	0xbd7a7d3e	-0.061154597
119	0xbdc346fe	-0.09535025
120	0x3e358d98	0.17729795
121	0xbdeb94b0	-0.11502969
122	0xbdb68b17	-0.08913248
123	0xbd55657a	-0.05209873
124	0xbdd0a43b	-0.101875745
125	0xbbb610d9	-0.0055562076
126	0x3ce9a76d	0.028522218
127	0xbe008f9b	-0.12554781
128	0xbd1e757a	-0.038686253
129	0x3e3ff2bd	0.18744941
130	0x3dac0968	0.084002316
131	0x3d6db2b4	0.058031753
132	0x3de3f396	0.11130445
133	0xbde582f6	-0.112066194
134	0x3c36de5e	0.011161415
135	0x3e0d9e4f	0.13829921
136	0xbd611bf2	-0.05495829
137	0x3e2be2cd	0.16785736
138	0x3d9a2371	0.07526291
139	0xbe07b112	-0.1325114
140	0xbe4b1031	-0.19830395
141	0xbbe560de	-0.007000073
142	0xbdc9832c	-0.09839472
143	0x3dcf382b	0.10118135
144	0x3b556010	0.0032558478
145	0x3d1cbc00	0.03826523
146	0xbcfec84b	-0.031101367
147	0x3cbc5fc9	0.022994893
148	0xbe4632b3	-0.19355278
149	0x3c5a48b3	0.013322997
150	0x3de86b66	0.113486096
151	0x3d9594cc	0.073037714
152	0xbd9f52c0	-0.07779455
153	0xbd3f1271	-0.046648446
154	0x3c8ed160	0.017433822
155	0x3dd39c6e	0.10332571
156	0x3e06c99e	0.13162848
157	0x3b3939cf	0.0028263216
158	0x3bb9fffb	0.005676267
159	0x3da2fab9	0.07957978
160	0xbe79ee3b	-0.24407284
161	0xbe0494d8	-0.12947404
162	0xbe1cd30a	-0.1531488
163	0xbc884044	-0.016632207
164	0x3e31b434	0.17353898
165	0x3decd96a	0.11564906
166	0xbdce3638	-0.10068935
167	0xbac3b6c7	-0.0014931791
168	0xbda69d7c	-0.081355065
169	0x3d6d9521	0.05800355
170	0x3d63201b	0.05545054
171	0x3cee152d	0.029062832
172	0x3dc5a0fa	0.096498445
173	0xbc0c623b	-0.008568342
174	0x3cff3042	0.03115094
175	0x3db12d25	0.08651189
176	0xbc5f4519	-0.013627314
177	0xbda9ef8e	-0.082976446
178	0xbdecc8ee	-0.11561762
179	0xbd9bf3b1	-0.0761484
180	0xbe277cc5	-0.1635619
181	0xbe357dbf	-0.1772375
182	0x3e012588	0.12611973
183	0x3e3733a7	0.17890798
184	0x3d88d5a8	0.06681377
185	0x3d8eef18	0.06979197
186	0xbe3ac879	-0.18240537
187	0xbe07cb83	-0.13261227
188	0x3dac512a	0.08413918
189	0x3daf74cd	0.085672
190	0xbe012ef0	-0.12615561
191	0x3cd43252	0.0259029
192	0xbd717fdf	-0.058959838
193	0xbdd3d846	-0.10343985
194	0x3d581365	0.05275287
195	0x3e214c55	0.15751775
196	0xbd3647a2	-0.044501908
197	0xbe29b9b0	-0.1657474
198	0x3d74f26e	0.05980151
199	0xbe03b182	-0.12860683
200	0xbe01b988	-0.12668431
201	0xbe280308	-0.16407406
202	0xbdbb44c5	-0.09143976
203	0xbe09802d	-0.13427801
204	0x3cb30804	0.021854408
205	0x3c067ee0	0.00820896
206	0x3d6b0bf2	0.05738444
207	0xbe041d33	-0.12901764
208	0x3ce4dae5	0.027936408
209	0x3c4c8395	0.0124825435
210	0xbd8f79b8	-0.07005638
211	0xbc89057f	-0.016726254
212	0x3e1da61b	0.15395395
213	0x3d88e5b4	0.066844374
214	0x3d1c897c	0.038217053
215	0x3c3260cf	0.010887339
216	0x3cbb5155	0.02286593
217	0x3d126bf4	0.035747483
218	0x3db58dbe	0.08864926
219	0xbcc0c029	-0.02352913
220	0xbe0c2d58	-0.13689172
221	0x3d3156d8	0.04329571
222	0x3d14af68	0.036300093
223	0xbc73e4c6	-0.014886087
224	0x3de2f588	0.110819876
225	0x3cf1be87	0.029509796
226	0x3d93a063	0.07208326
227	0xbe4e06e4	-0.20119816
228	0xbe22f63b	-0.15914242
229	0xbe6b4d1b	-0.22978632
230	0xbe2eac86	-0.17058
231	0xba4e2f00	-0.000786528
232	0x3c8f8934	0.017521478
233	0xbcda7d99	-0.026671218
234	0xbdc5ab29	-0.09651787
235	0x3c9c3a9a	0.019070912
236	0x3c68e2c0	0.014214218
237	0x3e0b2d61	0.1359153
238	0x3d450b96	0.048106752
239	0x3db09e12	0.086238995
240	0xbd9c683b	-0.07637068
241	0xbe43e601	-0.19130708
242	0x3e2f6229	0.17127289
243	0x3ab8c185	0.0014095759
244	0xbd4c740f	-0.04991537
245	0x3e32bd37	0.17454992
246	0xbc9b3d2d	-0.01895007
247	0xbded4a34	-0.11586419
248	0xbc8e507a	-0.017372359
249	0xbda28901	-0.07936288
250	0x3dd3c314	0.103399426
251	0xbe4f8cbd	-0.20268531
252	0x3c0046cc	0.007829379
253	0xbcca6d08	-0.024710193
254	0xbc8ce016	-0.017196696
255	0xbe694164	-0.22778851

fc1.bias f4 [64]
0	0x3da1fbe7	0.07909375
1	0x3d10096c	0.035165235
2	0xbde003bf	-0.109382145
3	0x3d87e272	0.06634988
4	0x3dc360c1	0.09539939
5	0x3de8d3c8	0.11368519
6	0x3dd5933c	0.10428473
7	0x3e0da1d9	0.13831271
8	0xbd5aebf2	-0.05344767
9	0x3e3475f9	0.17623128
10	0xbc361ab1	-0.011114762
11	0x3c8ab728	0.016933039
12	0x3de87b34	0.11351624
13	0x3ccac8d8	0.024753973
14	0x3e1c5d33	0.15269928
15	0x3e1817f5	0.14852889
16	0x3e0fc8c9	0.14041437
17	0x3d49afd0	0.049239933
18	0x3e112b6d	0.14176722
19	0xbca27d76	-0.019835215
20	0x3e2fc0b6	0.17163357
21	0xbd2a0d2a	-0.04151646
22	0xbdced4a0	-0.10099149
23	0xbde424aa	-0.111398056
24	0x3de3b979	0.111193605
25	0x3e4868a3	0.19571166
26	0x3df3965a	0.11893912
27	0x3d64f905	0.055901546
28	0x3d3b33d8	0.04570374
29	0x3e52a05b	0.20568983
30	0x3d8eb15a	0.06967421
31	0x3d57453d	0.052556265
32	0x3dd3a5bd	0.103343464
33	0xbda5ca44	-0.0809522
34	0x3d8c0cd7	0.068383865
35	0x3e230174	0.15918523
36	0x3dec22e7	0.115300946
37	0x3e02cab4	0.12772638
38	0xba7b4be6	-0.00095862
39	0x3c4eae0d	0.012614739
40	0x3e0e223c	0.13880247
41	0x3e452bba	0.19254962
42	0xbcdfa11d	-0.027298504
43	0x3e5b69c2	0.21427062
44	0x3d859ceb	0.0652407
45	0x3d040b9b	0.03223763
46	0xbcc486e7	-0.023990108
47	0x3cb85a05	0.022503862
48	0x3d741ae1	0.059595946
49	0x3dfd011e	0.12353729
50	0x3de10d17	0.10988825
51	0xbd214f38	-0.03938219
52	0xbd538c55	-0.051647503
53	0x3dd583c7	0.10425525
54	0x3d9f584e	0.07780515
55	0x3b284f01	0.0025681856
56	0x3d5de134	0.05416985
57	0x3d8a28c1	0.067460544
58	0x3dbd36e1	0.09238983
59	0xbbda0e7e	-0.0066545596
60	0x3e007cde	0.12547633
61	0x3e374f1b	0.1790127
62	0xbcfd862d	-0.030947769
63	0x3d683eab	0.05670039

fc2.weight f4 [16, 64]
0	0xbe7df9da	-0.24802342
1	0xbd9a77b7	-0.07542365
2	0x3dd1b860	0.10240245
3	0xbc08ae37	-0.008342317
4	0xbe0903be	-0.13380334
5	0x3e31c399	0.17359771
6	0xbe686a10	-0.2269671
7	0xbc583edb	-0.01319858
8	0x3ca2b28a	0.019860525
9	0x3d9b501f	0.07583641
10	0x3dcdcbe2	0.10048653
11	0xbc988e1f	-0.018622456
12	0x3e51e5cb	0.20497815
13	0x3d54b3c9	0.05192927
14	0x3dfc05a6	0.12305765
15	0x3e22ae71	0.15886857
16	0x3e1743f5	0.14772017
17	0x3e50ded0	0.20397496
18	0xbc52cc15	-0.01286604
19	0xbb3558aa	-0.0027671256
20	0x3e241a27	0.16025601
21	0x3e6174b0	0.22017169
22	0x3c3c094b	0.011476825
23	0x3e41c54b	0.18922918
24	0x3e25ea2f	0.16202615
25	0x3d38f7d8	0.045158237
26	0x3e620aba	0.22074404
27	0x3ca929e5	0.02064986
28	0xbdb1672e	-0.08662258
29	0x3e0b04a7	0.13575993
30	0xbc013e16	-0.007888338
31	0xbbfa6b50	-0.007642187
32	0x3e2d9072	0.16949633
33	0xbce7d6e7	-0.028300716
34	0xbe335ffc	-0.17517084
35	0xbd847ae8	-0.06468755
36	0x3e73e600	0.23818207
37	0xbdc020d5	-0.09381262
38	0xbdc56864	-0.096390516
39	0x3e22f0d6	0.15912184
40	0x3e6590a2	0.22418454
41	0x3d9a411c	0.0753195
42	0x3d5b176e	0.05348914
43	0x3d825196	0.063632175
44	0x3e1d8545	0.1538287
45	0x3d069041	0.032852415
46	0x3e11048f	0.14161895
47	0x3e07b841	0.13253881
48	0x3e611682	0.21981242
49	0xbadd8ed2	-0.0016903526
50	0xbc7c4be5	-0.015398954
51	0x3e2e7563	0.17036967
52	0xbc056b16	-0.008143207
53	0xbd391737	-0.045188155
54	0x3e03cb0a	0.12870422
55	0x3e6899fe	0.22714993
56	0xbe0100ba	-0.12597933
57	0x3ce19d31	0.027540775
58	0xbded14a8	-0.115762055
59	0x3b901211	0.004396685
60	0x3e556a64	0.20841366
61	0xbd567d1f	-0.05236542
62	0x3c08d03c	0.008350428
63	0x3d060270	0.03271717
64	0x3e0da76a	0.13833395
65	0xbca5bb46	-0.0202309
66	0x3e43d457	0.1912397
67	0xbdd9dd24	-0.10637882
68	0x3d3fc58e	0.046819262
69	0xbbfee282	-0.0077784667
70	0x3dc50064	0.09619215
71	0xbe0a7869	-0.13522495
72	0x3cfcbf9b	0.030853083
73	0x3d212712	0.0393439
74	0xbe6192bb	-0.2202863
75	0xbe010325	-0.12598856
76	0x3e2bb3db	0.16767828
77	0xbde50e78	-0.111844
78	0x3c05898b	0.008150469
79	0x3db87360	0.09006381
80	0xbe36b931	-0.17844082
81	0x3d14cc15	0.03632744
82	0x3e564998	0.20926511
83	0x3b2e012c	0.0026550991
84	0xbe2c2c08	-0.16813672
85	0xbe2d8aeb	-0.16947524
86	0x3e271e44	0.16320139
87	0x3e165652	0.14681366
88	0x3e4b1788	0.19833195
89	0xbe1c5692	-0.15267399
90	0x3e0dee21	0.1386037
91	0xbc582051	-0.013191299
92	0xbd92404b	-0.07141169
93	0x3dafaad6	0.08577506
94	0xbe50f14e	-0.2040455
95	0xbe13205f	-0.14367817
96	0x3b2fe0c6	0.0026836856
97	0xbdea3b00	-0.114370346
98	0xbd1326cb	-0.035925668
99	0x3d3276ad	0.04357021
100	0x3e588c12	0.21147183
101	0xbe30de26	-0.17272243
102	0x3d99280a	0.0747834
103	0xbca7e628	-0.02049549
104	0xbd4e4893	-0.05036218
105	0xbd830786	-0.06397919
106	0xbdae1c71	-0.085015185
107	0x3cd9e867	0.026600076
108	0x3e343c53	0.17601137
109	0x3cf974a1	0.03045112
110	0x3e4fe09d	0.20300527
111	0x3c343cab	0.0110007925
112	0x3df5326c	0.11972508
113	0x3e2ca02f	0.1685798
114	0xbd33ae74	-0.043867543
115	0xbe492a9a	-0.19645157
116	0xbe22a6db	-0.15883963
117	0xbe35ddec	-0.17760438
118	0x3e365f63	0.17809825
119	0xbe3e472f	-0.18581842
120	0x3c6a0f56	0.014285883
121	0x3dd39238	0.103306234
122	0x3e54b0fb	0.20770638
123	0xbdf35c1e	-0.11882804
124	0x3e120faf	0.14263795
125	0x3e585407	0.21125804
126	0x3e010fae	0.12603638
127	0xbcf46b37	-0.02983628
128	0x3ceda18f	0.029007701
129	0xbe31939e	-0.17341468
130	0x3e30d1cd	0.17267533
131	0x3d5ee4fa	0.054417588
132	0x3e39f568	0.18160021
133	0x3cfb8a9b	0.03070574
134	0xbc1e36ea	-0.009656647
135	0xbe1abffe	-0.15112302
136	0x3dc82591	0.0977279
137	0x3d849c06	0.064750716
138	0xbcf4ff49	-0.029906886
139	0xbe220e15	-0.15825684
140	0x3e482f50	0.19549298
141	0xbb7ebaae	-0.0038868594
142	0xbb7ffc5c	-0.003906033
143	0x3c266e96	0.010158202
144	0xbddfd365	-0.10928992
145	0xbdba276d	-0.09089551
146	0xbcdd0a3d	-0.026982421
147	0x3e6e80eb	0.23291366
148	0xbe15659b	-0.1458954
149	0xbd4d7bd2	-0.050166912
150	0x3e2495e2	0.16072801
151	0x3dc1cd5d	0.09462998
152	0x3d1eb9c1	0.038751367
153	0xbd8aa134	-0.06769028
154	0x3dfe49af	0.12416398
155	0xbdf89948	-0.12138611
156	0xbdf0a14f	-0.11749517
157	0x3dc5ccc8	0.096581995
158	0x3cdfce1b	0.027319958
159	0xbd091f4d	-0.033477116
160	0x3cb8c45b	0.022554567
161	0xbd836fe3	-0.06417825
162	0x3dc99514	0.098428875
163	0xbe4a950e	-0.19783422
164	0x3cabb0e2	0.020958368
165	0xbe54cf8e	-0.20782301
166	0x3da3c468	0.07996446
167	0xbd4aa035	-0.04946919
168	0x3dbedb4c	0.09319171
169	0xbe40ab9f	-0.18815468
170	0xbdbe05af	-0.09278428
171	0xbe4a8036	-0.19775471
172	0xbc0cfcf5	-0.0086052315
173	0x3e4064f3	0.18788509
174	0x3e331847	0.1748973
175	0xbc13e517	-0.009026787
176	0x3e1d4829	0.15359558
177	0x3e0cf6ce	0.13766024
178	0xbe7157a8	-0.23568594
179	0xbdcc9edf	-0.0999124
180	0xbda6a9a7	-0.08137827
181	0xbe0c0659	-0.13674296
182	0x3e6c1022	0.23053029
183	0xbe4dd36e	-0.20100185
184	0xbdc58a0c	-0.09645471
185	0xbaf0e6c3	-0.0018379319
186	0x3e122bb2	0.14274481
187	0x3c827e07	0.015929235
188	0x3e2104de	0.15724513
189	0x3e4eb33c	0.2018556
190	0x3e284a85	0.16434677
191	0xbe4a3d45	-0.19749935
192	0x3de63c51	0.11241973
193	0x3e592096	0.21203837
194	0x3c2dc325	0.010605608
195	0x3d695ce1	0.05697334
196	0x3cad9794	0.021190442
197	0x3dd2f263	0.10300138
198	0xbde33e6b	-0.1109589
199	0x3cae59ad	0.021282995
200	0xbc85543c	-0.016275518
201	0x3c1212d0	0.008915618
202	0xbdae5541	-0.08512355
203	0x3b9c4e89	0.0047701043
204	0x3d47ec00	0.04880905
205	0x3daa7a4f	0.0832411
206	0x3da5430f	0.08069431
207	0x3da19423	0.07889583
208	0x3db40771	0.08790482
209	0x3e265592	0.1624358
210	0x3d7b663c	0.061376795
211	0xbe2af803	-0.16696171
212	0xbd034f28	-0.03205791
213	0x3e5c1087	0.2149068
214	0x3dad3492	0.084572926
215	0x3daf297e	0.08552836
216	0x3daf478c	0.08558568
217	0x3d00211f	0.031281587
218	0xbbfcf7c7	-0.007719967
219	0x3ca636a0	0.02028972
220	0x3c7dab3a	0.015482718
221	0x3e2dbf5c	0.16967529
222	0x3e3e8d46	0.18608579
223	0x3df33b73	0.118765734
224	0xbd711027	-0.058853295
225	0x3da219d6	0.07915084
226	0xbe0a837c	-0.1352672
227	0x3e288769	0.16457905
228	0x3dc0735a	0.093970016
229	0x3dd1d44d	0.10245571
230	0xbde95424	-0.11393002
231	0x3d8965e8	0.0670889
232	0xbd0592a3	-0.032610547
233	0x3e5aaf3f	0.21355914
234	0xbd434b1b	-0.047679048
235	0x3e0ad7b6	0.1355885
236	0x3db00d75	0.08596317
237	0x3ce174ff	0.027521608
238	0xbc9aae88	-0.018882051
239	0x3df4683f	0.11933946
240	0xbe3d1bca	-0.18467632
241	0x3e629f96	0.2213119
242	0x3db0f341	0.08640147
243	0x3e3a92ee	0.18220112
244	0x3d29a470	0.041416585
245	0x3dec48e7	0.115373425
246	0xbd3eb9e8	-0.046564013
247	0x3d27edad	0.04099815
248	0x3da2f214	0.07956329
249	0xbdfd0d63	-0.12356069
250	0xbda58175	-0.080813326
251	0x3e3be281	0.18348123
252	0xbcb36e62	-0.02190322
253	0x3d97e72d	0.0741714
254	0x3dd589c2	0.10426666
255	0x3ca307ea	0.019901235

fc2.bias f4 [16]
0	0x3e009160	0.12555456
1	0xbd1f9474	-0.038959935
2	0x3e085b03	0.13315968
3	0x3d6cbc87	0.05779698
4	0x3dfba38a	0.12287052
5	0x3d708bf6	0.058727227
6	0x3de73a6c	0.1129044
7	0xbd90d04e	-0.07070981
8	0x3bd81b46	0.006595048
9	0xbdeb300d	-0.11483774
10	0xbcd6c955	-0.02621905
11	0x3e102b3d	0.14078994
12	0x3e06ae65	0.13152464
13	0xbd92a0a6	-0.071595475
14	0x3d24a3aa	0.040195145
15	0xbd794208	-0.060853988

fc3.weight f4 [4, 16]
0	0xbe3c364f	-0.18380092
1	0xbe4a91d8	-0.19782197
2	0x3e095efe	0.13415143
3	0xbe876f6e	-0.26452202
4	0xbe0f8630	-0.14016032
5	0xbe2deb4f	-0.16984294
6	0x3e09ad19	0.13444938
7	0x3e875efe	0.2643966
8	0xbe45cbc9	-0.19316019
9	0x3e0268c8	0.12735283
10	0x3dce8cd4	0.100854546
11	0x3e15f270	0.14643264
12	0xbdccb7ee	-0.09996019
13	0x3e87d750	0.26531458
14	0x3e821bc0	0.25411797
15	0x3e378efd	0.1792564
16	0xbd44cf95	-0.04804953
17	0x3e3d465c	0.18483871
18	0xbe406620	-0.18788958
19	0x3afadd15	0.0019139374
20	0x3e3df894	0.18551856
21	0xbc860edc	-0.016364507
22	0xbd3be588	-0.045873195
23	0xbebcaaf8	-0.3684919
24	0xbdab778f	-0.08372413
25	0x3e6797c0	0.22616482
26	0xbde3338d	-0.11093817
27	0xbdd3637c	-0.103217095
28	0x3e73a6db	0.23794119
29	0xbdf03d67	-0.117304616
30	0x3e123f41	0.14281942
31	0xbe40818d	-0.1879942
32	0x3ea9a9a1	0.3313723
33	0x3e0aff84	0.13574034
34	0x3eb9913c	0.36243618
35	0xbd3a12d4	-0.045428112
36	0xbe8c15e5	-0.27360454
37	0xbd8fbcd6	-0.070184395
38	0x3c05da42	0.0081697125
39	0xbdec1a43	-0.115284465
40	0xbd30480d	-0.043037463
41	0xbdcaaba9	-0.09896023
42	0xbe4e06dd	-0.20119806
43	0xbdf9a695	-0.12189976
44	0x3e4ff4f2	0.20308283
45	0xbe8d5b93	-0.27608928
46	0xbe539992	-0.20664051
47	0x3e1c67b5	0.15273936
48	0x3ce5e8ce	0.028065111
49	0xbe9b23a2	-0.30300623
50	0xbe736ba0	-0.23771524
51	0x3dee9765	0.1164997
52	0xbe79e891	-0.24405123
53	0xbeb3261f	-0.34990022
54	0xbeb5894a	-0.35456306
55	0xbeb04ad1	-0.3443208
56	0x3ea6408f	0.3247113
57	0x3e0c3997	0.13693844
58	0x3e7693a7	0.24079762
59	0xbe10506e	-0.14093181
60	0xbe239c2d	-0.15977545
61	0xbdf47f97	-0.11938398
62	0x3e51d771	0.2049234
63	0xbe9435ba	-0.2894724

fc3.bias f4 [4]
0	0x3dd3a4a0	0.10334134
1	0xbe25fae9	-0.16208996
2	0x3c825242	0.015908364
3	0xbde0b92d	-0.109728195
